Control_Python/model_SSBH_200Hz.tflite (tflite, 12072 bytes, 7 tensors)

arith.constant1 f4 [32, 1, 2, 1]
0	0x3e19f3d2	0.15034416
1	0xbeb8c42b	-0.36087164
2	0x3f24adf8	0.64327955
3	0xbf236e3a	-0.6384007
4	0x3f1959c6	0.5990261
5	0xbf109752	-0.56480896
6	0x3f1a8271	0.6035529
7	0xbf167ad7	-0.5878119
8	0x3f0b706b	0.5446841
9	0x3e875997	0.2643554
10	0x3f3c183d	0.73474485
11	0xbeca13e1	-0.3946829
12	0xbe267b89	-0.16258062
13	0xbedc8874	-0.43072855
14	0xbf42bff4	-0.7607415
15	0x3eeba73c	0.46026027
16	0x3f284b34	0.6573975
17	0xbef67f38	-0.48143935
18	0xbeb8602a	-0.36010867
19	0xbe78c99d	-0.2429566
20	0xbdb13b66	-0.086539075
21	0xbeb618fa	-0.3556593
22	0xbed1b632	-0.40959316
23	0x3ee88def	0.45420787
24	0x3cf010f6	0.029304963
25	0x3f1a7952	0.6034137
26	0xbee7f0a8	-0.45300794
27	0x3f054589	0.5205923
28	0xbec75519	-0.38932112
29	0xbdbded8a	-0.092738226
30	0xbece3a93	-0.40279064
31	0xbef213e0	-0.47280788
32	0xbf06758c	-0.5252311
33	0x3ed73e9f	0.42039964
34	0x3f19c316	0.600633
35	0x3ee89110	0.45423174
36	0xbeae2ae0	-0.34017086
37	0x3ef3a865	0.47589412
38	0x3f2c2474	0.67243123
39	0xbef59ece	-0.4797272
40	0x3f34d5d5	0.7063878
41	0xbe55be5c	-0.20873398
42	0x3eeda01a	0.4641121
43	0xbefdec32	-0.49594265
44	0xba094f6c	-0.000523797
45	0xba12aade	-0.0005594919
46	0x3ecb3fae	0.3969702
47	0xbf2a2d91	-0.6647578
48	0x3f38fe04	0.722626
49	0x3f0798af	0.5296735
50	0x3eeccb95	0.4624907
51	0xbe9530ee	-0.29138893
52	0x3f6a955c	0.91634154
53	0x3edd5ffa	0.43237287
54	0x3f182026	0.59424055
55	0xbdd0404d	-0.101685144
56	0x3f0e786f	0.5565252
57	0xbf068535	-0.5254701
58	0xbe65ddb5	-0.22447856
59	0x3e1124e5	0.1417423
60	0xbf4c14dd	-0.79719335
61	0x3daabb7f	0.08336543
62	0x3f2081fb	0.62698334
63	0xbf17afb4	-0.59252477

arith.constant2 f4 [32]
0	0x00000000	0.0
1	0x00000000	0.0
2	0x00000000	0.0
3	0x00000000	0.0
4	0x00000000	0.0
5	0x00000000	0.0
6	0x00000000	0.0
7	0x00000000	0.0
8	0x00000000	0.0
9	0x00000000	0.0
10	0x00000000	0.0
11	0x00000000	0.0
12	0x00000000	0.0
13	0x00000000	0.0
14	0x00000000	0.0
15	0x00000000	0.0
16	0x00000000	0.0
17	0x00000000	0.0
18	0x00000000	0.0
19	0x00000000	0.0
20	0x00000000	0.0
21	0x00000000	0.0
22	0x00000000	0.0
23	0x00000000	0.0
24	0x00000000	0.0
25	0x00000000	0.0
26	0x00000000	0.0
27	0x00000000	0.0
28	0x00000000	0.0
29	0x00000000	0.0
30	0x00000000	0.0
31	0x00000000	0.0

arith.constant3 f4 [2, 32]
0	0x3ec0522b	0.3756269
1	0xbedcb27d	-0.43104926
2	0xbf0383d9	-0.5137306
3	0xbfa544f8	-1.2911673
4	0x3eaabd52	0.33347565
5	0xbee521a4	-0.44752228
6	0xbea8879b	-0.3291596
7	0x3f897ef9	1.0741874
8	0x3f86a58f	1.0519274
9	0x3e5fbc8f	0.21849273
10	0xbe9cba19	-0.3061073
11	0xbe04cbcd	-0.12968369
12	0x3f825f4f	1.0185336
13	0x3e98d704	0.29851544
14	0xbe3f6d1a	-0.18693963
15	0xbebaf700	-0.3651657
16	0x3efce01d	0.49389735
17	0x3ed3547b	0.4127539
18	0xbdfb13b4	-0.122596174
19	0x3f8949b8	1.0725622
20	0x3e71fb96	0.23631129
21	0x3eb87af6	0.36031312
22	0xbf4ab4e9	-0.79182297
23	0xbec79a75	-0.3898503
24	0x3c7fb254	0.015606482
25	0xbe837c08	-0.25680566
26	0x3f94cee6	1.162564
27	0xbd6b8aff	-0.057505604
28	0xbe11cf3f	-0.14239214
29	0xbf1ab42d	-0.60431176
30	0xbe4639fa	-0.19358054
31	0x3ebac458	0.36477923
32	0x3dc138fd	0.09434698
33	0x3fc07064	1.5034299
34	0x3fd9c6b3	1.7013763
35	0xbc008ebe	-0.007846532
36	0x3f1bc585	0.60848266
37	0x3f5a0b91	0.851739
38	0xbeaae710	-0.33379412
39	0xbf2a9783	-0.6663744
40	0x401e6b42	2.4752965
41	0xbf2698d2	-0.65076935
42	0xbe43364c	-0.19063681
43	0x3c9b9813	0.018993413
44	0x3f4ce972	0.8004371
45	0xbf920dee	-1.1410501
46	0x3de20a8f	0.1103717
47	0x3e995259	0.2994564
48	0x3fa25768	1.2682924
49	0x3ed2bda8	0.4116032
50	0xbf633b0c	-0.88761973
51	0xbdb73843	-0.08946278
52	0xbed4a372	-0.4153095
53	0xc026a2f9	-2.603697
54	0x411b7595	9.716207
55	0x3f87e0ea	1.0615513
56	0xbe464c12	-0.19364956
57	0xbe62b55c	-0.22139496
58	0xc00cfe3d	-2.2030175
59	0xbece0141	-0.40235332
60	0x3f6f1736	0.9339479
61	0x3f99de94	1.202105
62	0x3f17e70f	0.5933694
63	0x3f826cce	1.0189455

arith.constant4 f4 [32, 64]
0	0x3d8fb83c	0.07017562
1	0xbd82d9c0	-0.06389189
2	0x3e2aeb07	0.16691218
3	0x3d8d5bad	0.069022514
4	0xbe51c93c	-0.20486921
5	0xbe6db86c	-0.23214883
6	0xbdba92fa	-0.09110065
7	0xbd0466cc	-0.032324597
8	0xbe03ef29	-0.12884201
9	0xbda74dae	-0.08169113
10	0xbe2181a1	-0.15772106
11	0xbdb3bae1	-0.08775879
12	0xbdfe4e00	-0.12417221
13	0x3da1b69d	0.07896159
14	0x3d29d810	0.04146582
15	0xbe40d86d	-0.1883256
16	0xbe5b5c4f	-0.21421932
17	0xbe64c484	-0.2234059
18	0xbe551a61	-0.20810844
19	0xbe6b0c7c	-0.22953981
20	0x3e4c88c0	0.19974041
21	0x3e5e6ebe	0.21721932
22	0xbe910bf2	-0.28329426
23	0x3d98f3a5	0.074683465
24	0xbda62c9d	-0.08113978
25	0xbd89014f	-0.06689703
26	0xbd92bb8f	-0.0716468
27	0xbe21ebd0	-0.15812612
28	0xbd589495	-0.052876074
29	0x3deaf20a	0.114719465
30	0x3dee325b	0.11630698
31	0xbe9240cf	-0.2856507
32	0x3e32c269	0.17456974
33	0xbe033a8c	-0.12815303
34	0x3e1238cb	0.14279477
35	0xbcaeb047	-0.02132429
36	0xbdaed7d8	-0.08537263
37	0x3d058850	0.0326007
38	0xbcca341d	-0.024683053
39	0xbd642c4d	-0.05570631
40	0xbe0736fd	-0.1320457
41	0xbdba35b1	-0.09092272
42	0x3d994db0	0.07485521
43	0x3df9f6d1	0.122052796
44	0xbe7eb648	-0.24874222
45	0x3db75c54	0.08953157
46	0xbdae18d8	-0.08500832
47	0xbd96905e	-0.073517546
48	0x3e20a1ee	0.15686771
49	0x3d0b1c02	0.033962257
50	0x3cf53b1a	0.029935408
51	0xbdd2e590	-0.10297692
52	0xbdfecd85	-0.124415435
53	0xbe8e0484	-0.2773782
54	0x3c809147	0.015694274
55	0x3e170b97	0.14750515
56	0xbe78ab11	-0.24284007
57	0x3e37ede0	0.17961836
58	0x3e04f221	0.1298299
59	0xbe034c56	-0.12822089
60	0x3dd28dce	0.10280953
61	0xbe14fa50	-0.14548612
62	0xbe12eb45	-0.1434756
63	0x3dc910cb	0.09817656
64	0xbddbaf16	-0.10726754
65	0x3eeeb238	0.46620345
66	0x3e9713fe	0.2950744
67	0x3d8f60a9	0.07000858
68	0xc02ec08c	-2.7305021
69	0xbf0d7e90	-0.55271244
70	0xbdd272a6	-0.10275774
71	0x3e15d0de	0.14630458
72	0x3e5d8b5d	0.21635194
73	0xbd9104d4	-0.07080999
74	0x3e1b3811	0.15158106
75	0x3f2d3bd1	0.676694
76	0xbf7c6903	-0.98597735
77	0x3ec416ad	0.3829855
78	0xbc84075f	-0.016116796
79	0x3ec45dea	0.383529
80	0x3eb6e917	0.35724708
81	0xc11fc1cf	-9.984817
82	0x3ebfa13a	0.37427694
83	0x3ddb8701	0.10719109
84	0xbf90a999	-1.1301757
85	0x3f028b20	0.5099354
86	0x3ed23959	0.41059378
87	0xbe187c2a	-0.14891115
88	0xc0089492	-2.134068
89	0x3cfc772c	0.030818544
90	0xbfd58c1a	-1.6683381
91	0xbf134566	-0.5752777
92	0x3f388531	0.72078234
93	0x3df2f027	0.11862212
94	0x3f716b5b	0.94304436
95	0x3f406e3c	0.75168204
96	0x3eca6ec9	0.39537647
97	0x3eee7af3	0.46578178
98	0xbd5c6fc4	-0.053817526
99	0x3f033dfc	0.51266456
100	0xbeea1467	-0.4571869
101	0xbeb1e7c5	-0.3474714
102	0x3e62ed19	0.22160758
103	0x3d4990d9	0.049210403
104	0x3e89d19d	0.26917735
105	0x3e535489	0.20637716
106	0x3eaee8ac	0.3416189
107	0xbeb3c116	-0.3510825
108	0xc08431ee	-4.131095
109	0xbe72c0fd	-0.23706432
110	0xbe01d0ab	-0.12677257
111	0xbd15678b	-0.0364757
112	0xbe129b91	-0.14317156
113	0xbf0a1c77	-0.53949684
114	0xbe988a8f	-0.29793212
115	0x3e644487	0.22291766
116	0xbf1dac9e	-0.6159152
117	0x3e1487bd	0.14504905
118	0x3e023c53	0.12718324
119	0x3eea1217	0.45716926
120	0xbecf6d73	-0.4051319
121	0x3f46f6dd	0.77720433
122	0xbde54876	-0.111954615
123	0xbf6db710	-0.92857456
124	0x3f8a0e65	1.0785643
125	0x3bbb49e5	0.005715596
126	0xbf3bad55	-0.7331136
127	0x3f815f12	1.0107138
128	0xbde00bfe	-0.10939787
129	0x3f2e7d1d	0.6815966
130	0xbe080e59	-0.13286723
131	0xbb4a5c72	-0.0030877856
132	0xbfbd7f82	-1.4804537
133	0xbfe57ae4	-1.7928128
134	0x3e8ad43d	0.2711505
135	0x3eab3e89	0.33446148
136	0x3e9f421d	0.31105128
137	0x3e0dc7e2	0.1384578
138	0x3e6dcef6	0.2322348
139	0x3f0a167d	0.53940564
140	0xbed8e056	-0.42358655
141	0x3f1af280	0.60526276
142	0x3e8ee3d7	0.27908203
143	0xbc7bb52e	-0.015363021
144	0x3d2471e6	0.040147685
145	0xc052d29d	-3.2941048
146	0x3e5df144	0.21674067
147	0x3eaad1e5	0.33363262
148	0xbfafe7fa	-1.3742669
149	0x3f3020cc	0.68800044
150	0x3e4445db	0.19167273
151	0xbdb8a402	-0.09015657
152	0xc03134ff	-2.7688596
153	0xbf04b7c0	-0.5184288
154	0xc04b20da	-3.17388
155	0xbf534313	-0.8252422
156	0x3f85a8ab	1.0442098
157	0x3e9d4f5d	0.30724612
158	0x3f503890	0.8133631
159	0x3f5769db	0.841459
160	0xbe2ef9f0	-0.17087531
161	0xbe986edd	-0.29772082
162	0xc019c4b4	-2.4026308
163	0xbe907977	-0.2821767
164	0xbe400772	-0.1875284
165	0xbdea8bae	-0.11452423
166	0xbd2329ed	-0.039834905
167	0xbe960a1a	-0.29304582
168	0xbe947477	-0.28995106
169	0xbe7b06a5	-0.24514253
170	0x3d00fae6	0.031489275
171	0x3cd69af3	0.026196932
172	0xc0824949	-4.071446
173	0xbd23f52d	-0.04002874
174	0xbe81f5fe	-0.2538299
175	0xbe134805	-0.14382942
176	0x3ce9703a	0.028495897
177	0xbf051943	-0.5199167
178	0xbea295df	-0.31754968
179	0x3d920248	0.07129341
180	0xbd6243d2	-0.05524046
181	0xbe4e5b19	-0.20151938
182	0xbe18a909	-0.14908232
183	0xbec9b7f9	-0.39398172
184	0xbd2abfe2	-0.0416869
185	0x3e646624	0.22304589
186	0xbd159e2b	-0.036527794
187	0xbe8548b4	-0.2603203
188	0x3f07992d	0.529681
189	0xbcccda4d	-0.025006438
190	0xbf58eafb	-0.8473355
191	0x3e6dfebb	0.23241703
192	0xbd38b21f	-0.045091745
193	0x3d76f8b8	0.06029579
194	0xbf02ce15	-0.51095706
195	0xbe6423d1	-0.22279288
196	0xc157afdd	-13.480435
197	0xbed6b5eb	-0.41935667
198	0x3e991a0f	0.29902694
199	0x3ea22c5a	0.31674463
200	0x3f48443d	0.78229123
201	0x3e1dd4fe	0.15413281
202	0x3e51bf2a	0.2048308
203	0x3f05faa1	0.52335554
204	0xc15b921f	-13.723174
205	0x3edd8c38	0.4327104
206	0x3e6aedb6	0.22942242
207	0xbc262d19	-0.010142588
208	0xbce713c3	-0.028207665
209	0xc0207588	-2.5071735
210	0x3e966f58	0.29381824
211	0x3dacc04d	0.08435116
212	0xbef7878e	-0.48345608
213	0x3e9006c4	0.28130162
214	0x3d8968f8	0.06709474
215	0xbe198b6b	-0.1499459
216	0xbfcfa701	-1.622284
217	0xbd7016bd	-0.058615435
218	0xbf96e6b8	-1.178916
219	0xbe659fcc	-0.22424239
220	0x3f45a71b	0.7720811
221	0xbd49ad14	-0.049237326
222	0x3f6d9dcc	0.92818904
223	0x3ef55b1a	0.47921067
224	0xbe8738e8	-0.26410604
225	0xbf2fbc7c	-0.6864698
226	0xc02b0b5c	-2.6725683
227	0xbf07682f	-0.52893347
228	0xbe691d11	-0.22764994
229	0x3eb443be	0.35207933
230	0x3d3f4641	0.04669786
231	0x3de3cb57	0.11122768
232	0x3ca1d004	0.01975251
233	0x3de740b8	0.11291641
234	0xbe0021b3	-0.12512855
235	0x3e2bddb7	0.16783796
236	0xc0f94671	-7.789849
237	0x3e1843f1	0.14869668
238	0x3d729fdd	0.05923449
239	0xbe188b58	-0.14896905
240	0x3e329ecb	0.17443387
241	0xbd90b9df	-0.07066702
242	0xbe21ec88	-0.15812886
243	0x3e0ac027	0.13549863
244	0x3da9802f	0.08276402
245	0xbd2325e2	-0.03983105
246	0x3de1e7f3	0.11030569
247	0xbf05d02a	-0.5227076
248	0x3c5a69c2	0.013330879
249	0x3e7a2463	0.24427943
250	0xbcde3adb	-0.027127674
251	0x3ca3cb7b	0.019994488
252	0x3dc33bd0	0.09532893
253	0x3e12ce39	0.1433648
254	0xbf1cfe22	-0.61325276
255	0xbc2742ed	-0.010208827

arith.constant5 f4 [1, 1, 32]
0	0x3d50fc91	0.051022116
1	0x3df4d76b	0.1195515
2	0xbbc38f86	-0.005968037
3	0x3e0611c3	0.13092713
4	0xbd5d3411	-0.054004733
5	0xbeb8eae8	-0.3611672
6	0x3d9ac6e4	0.075574666
7	0x3d8d5885	0.069016494
8	0x3d416466	0.047214888
9	0x3d34e0cf	0.044159707
10	0x3e6f89de	0.23392436
11	0x3df8d2c4	0.12149575
12	0xbeaac31e	-0.33351988
13	0x3e1dff42	0.15429404
14	0xbc8c3f55	-0.017120043
15	0x3dd6190e	0.104539976
16	0x3e0a2233	0.13489608
17	0xbdbda5f0	-0.09260166
18	0x3e741669	0.23836674
19	0x3dc0cc6b	0.0941399
20	0xbd05710c	-0.032578513
21	0x3c93a810	0.018024474
22	0xbbfac3d8	-0.007652741
23	0x3e0a378d	0.13497753
24	0x3c94a89f	0.018146811
25	0x3db12f92	0.086516514
26	0x3dce9634	0.10087243
27	0xbd2a3ada	-0.04156003
28	0x3d9180ad	0.07104621
29	0x3cb7f511	0.022455724
30	0xbf1ec5b4	-0.6202042
31	0x3da4772e	0.08030544

arith.constant6 f4 [32]
0	0xbd1aa8e6	-0.03775873
1	0x3d9ee4bd	0.07758472
2	0xbdc08bed	-0.09401689
3	0xbd3bcabc	-0.04584764
4	0xbda5666c	-0.08076176
5	0xbd2ababd	-0.041681994
6	0x3e80620a	0.25074798
7	0x3e8d2014	0.27563536
8	0xbe825bfa	-0.25460798
9	0x3eb6cc15	0.35702577
10	0x3e5ffdbd	0.21874137
11	0xbd983426	-0.074318215
12	0xbe9d81db	-0.30763134
13	0x3edd01ed	0.43165532
14	0xbd21ea9e	-0.03953039
15	0xbd2d6753	-0.042334866
16	0xbd33cacf	-0.043894585
17	0x3ddf5c19	0.10906238
18	0xbb444ee6	-0.0029954254
19	0x3cf60036	0.030029397
20	0x00000000	0.0
21	0x3d579368	0.052630812
22	0xbd67b4b8	-0.05656883
23	0x3d9aa789	0.07551486
24	0x3e362623	0.17787986
25	0x3e38811d	0.18018003
26	0xbeb48114	-0.3525473
27	0x3e8b0613	0.27153072
28	0x3e4337e5	0.19064291
29	0xbd5009da	-0.050790645
30	0xbdde7b75	-0.10863391
31	0xbc699729	-0.014257231

arith.constant7 f4 [2]
0	0x3d496a50	0.049173653
1	0xbeb60545	-0.35550895
